etc/model/model_spotting3.pth (torch_old, 119427 bytes, 19 tensors)

bfc1.parameter_0_0 f4 [32, 54]
000000 bb 65 ac 3d fc e7 df bd c6 2d ef 3e 13 9b 25 be
       0.08417841 -0.109329194 0.4671461 -0.16172437
000010 bb 25 6d 3e dc ee e1 3c 78 f4 30 be 48 ee fd 3d
       0.23158924 0.027579717 -0.17280757 0.12398964
000020 e1 fb cb 3d 5f d8 d0 bd 94 45 8c bd fc 89 1e be
       0.099601515 -0.101975195 -0.068492085 -0.15482324
000030 07 6b 81 3d 17 b4 8a 3d cc db 79 be 97 46 39 bd
       0.06319242 0.06772631 -0.24400252 -0.045233335
000040 c1 70 12 3e 9d 26 61 bd 5a 09 0c be cf 8d 17 be
       0.14300825 -0.054968465 -0.13675442 -0.1480019
000050 84 21 63 bc 9b 1d 69 bd bf 52 1a 3d 5a c7 ca bc
       -0.013862971 -0.056913 0.03767657 -0.024753261
000060 af 0c 02 80 d6 be 01 00 d8 ee 01 80 50 01 cc 3c
       -1.88221e-40 1.60295e-40 -1.77516e-40 0.02490297
000070 a2 7d b8 bd 88 43 38 3b ed 0d 42 bd 16 a0 eb 3d
       -0.090083376 0.0028116424 -0.047376562 0.11505143
000080 3a 3f 38 3b 15 3f 39 be 61 bb 71 bd 48 70 2a bd
       0.0028113858 -0.1809047 -0.05901659 -0.041610986
000090 e1 03 1a bd a1 ce a1 bd 18 40 38 3b b9 83 85 3d
       -0.037601355 -0.079007395 0.0028114375 0.06519265
0000a0 27 67 ec bd b6 41 38 3b 7d e2 87 bd bb a8 65 bd
       -0.11543112 0.0028115339 -0.06634996 -0.056069117
0000b0 33 43 3e 3d ca 06 b3 3c f1 44 e0 3c 02 3b 5c 3e
       0.046450805 0.021853823 0.027376624 0.21506885
0000c0 49 fd 7c bd af d4 79 bd 9f bc 78 3e 88 a6 74 3d
       -0.06176499 -0.060993847 0.24290703 0.05972913
0000d0 0c ad 75 bc ab 4d 81 3e f2 1c b7 bc 45 a0 0e 3e
       -0.014994871 0.25254568 -0.02235267 0.13928325
0000e0 21 2a 39 3e ea a2 79 bd b3 22 cb bd 2a a6 42 be
       0.18082477 -0.060946383 -0.09918728 -0.19008699
0000f0 0d 3b 4a be f9 e6 ed 3d a5 46 19 be 3b 8b 9d bd
       -0.19749089 0.1161632 -0.14968355 -0.07692572
000100 a6 20 2d 3d 33 0d 13 3f 28 0e 62 3c 4a 4b 81 3e
       0.042267464 0.57442015 0.01379732 0.25252753
000110 ca 84 ee bd 0d f1 59 3e c7 c9 35 3e b4 9a b4 be
       -0.11646421 0.2128336 0.17752753 -0.3527428
000120 3d 4b 2a 3d 69 b4 3c 3e ca 7d f6 3d 5a b6 85 3e
       0.04157566 0.18428196 0.12035711 0.26115686
000130 eb 76 7a 3e 96 83 3a ba 08 cf 00 00 5d 27 01 80
       0.24459426 -0.0007114945 7.4269e-41 -1.05956e-40
000140 f2 cf 00 80 98 92 e1 bd 56 ad 3e bd d5 a9 d0 3b
       -7.4597e-41 -0.11014289 -0.046552025 0.006367902
000150 1e 0d 08 bd c3 d1 88 be 45 a9 d0 3b ed 8c bb bd
       -0.033215635 -0.26722535 0.0063678348 -0.09157739
000160 41 10 77 bc d7 f6 0f 3d b6 c8 d2 bd f8 48 c9 bd
       -0.015079559 0.035147514 -0.10292189 -0.09828371
000170 c2 a9 d0 3b 3c f2 8b 3e b3 e8 8f be 59 aa d0 3b
       0.006367893 0.27333248 -0.28107223 0.0063679633
000180 46 6e eb 3d 2d 4a ed bd 4d 26 15 3e 4d 2a 51 bd
       0.11495642 -0.115864135 0.14565392 -0.05106573
000190 06 6e b6 3c cb ec b9 bc c6 ef 9a be e6 14 75 bd
       0.02226926 -0.02269592 -0.30261058 -0.059834383
0001a0 7f 33 9d 3e 6f 72 b9 3e e6 b8 df 3c b8 81 4a 3d
       0.3070335 0.36220118 0.027309846 0.049440116
0001b0 17 4f b1 bc d0 b6 27 3d 3b 0a 1e be 5a ce a1 bd
       -0.021644158 0.040945828 -0.1543359 -0.079006866
0001c0 3e eb 77 3c a0 97 aa 3d fa 0f 9a bc 5e 90 34 bb
       0.01513177 0.083297014 -0.018806446 -0.002755187
0001d0 ff 9d 4b be b3 6a 58 bc 9a 1d 3a bd 4a f8 0d 3e
       -0.1988449 -0.013209033 -0.045438386 0.13864246
0001e0 c8 8e 5a 3a 2b ac a0 3d ea cf c6 bd a0 51 76 bb
       0.0008337316 0.078453384 -0.09707625 -0.0037585273
0001f0 0b f0 ca ba 8b bc f3 3b 86 a3 a0 3c 82 ef a8 3c
       -0.0015482915 0.0074382476 0.019609224 0.020622019
000200 a8 2c 0d 3e e3 1f 85 3c c2 03 f3 bc e6 c5 e2 3f
       0.13786566 0.016250556 -0.029664878 1.7716644
000210 db 8a 02 00 f8 39 00 80 17 52 00 80 12 c2 41 3b
       2.33483e-40 -2.0795e-41 -2.9448e-41 0.0029565138
000220 81 47 e6 3c 2d 58 15 3c 7e 30 12 bc 76 9b ce bc
       0.028110268 0.009115261 -0.008922694 -0.025220614
000230 13 58 15 3c 29 62 b0 3d 2c c1 0d 3d 5b bb 20 bd
       0.009115237 0.086124726 0.03460805 -0.039241176
000240 98 49 55 3b 5c 43 32 bc 0e 58 15 3c 53 0f 3c 3e
       0.0032545086 -0.010880318 0.009115232 0.1836522
000250 bf ed e5 3c 0c 58 15 3c b4 e6 8d bd a6 95 b6 3d
       0.028067468 0.00911523 -0.06928769 0.08915262
000260 f7 1d c7 bc 8b 95 52 bd bf cb bb bc 46 04 79 3e
       -0.02430628 -0.051412147 -0.022924302 0.24318036
000270 96 82 65 bc 13 9b 96 3c 52 9b f0 bc 72 3c 22 3c
       -0.014008185 0.018384492 -0.029370937 0.009902107
000280 11 10 34 3c d8 06 68 bb 03 53 db bd fd dc 0e bd
       0.010990159 -0.003540447 -0.107091926 -0.03487872
000290 a0 5f cb be 81 37 96 3d ac 03 9e bd 60 ec 31 3d
       -0.39721394 0.07334805 -0.07715544 0.043438315
0002a0 0d 30 57 3d 03 55 79 bd f3 a1 af 3e 69 b5 82 3c
       0.05253606 -0.06087209 0.34303245 0.015955644
0002b0 d9 35 a9 bd ef cd 13 3f f5 ec 73 3d 2d 1b f8 bd
       -0.08262224 0.57736105 0.05955215 -0.12114558
0002c0 6a 62 87 be 29 e1 f8 bd b7 66 68 bd 91 98 29 3d
       -0.2644227 -0.12152321 -0.05673858 0.041405264
0002d0 0b c6 07 3d 52 f7 91 3d fa ca 9a 3e 33 67 80 3e
       0.033147853 0.07127251 0.30232984 0.25078735
0002e0 8a 07 b1 be d3 c2 44 bd 20 88 01 80 87 91 02 00
       -0.34576064 -0.04803736 -1.40668e-40 2.35876e-40
0002f0 04 a1 00 00 8b 07 9f bd 88 9e 8e 3e fc 16 ea 3b
       5.7762e-41 -0.077651106 0.27855325 0.007143853
000300 84 ec 88 be 78 fc 91 be af 17 ea 3b b9 fe 90 3e
       -0.26742947 -0.2851293 0.0071439366 0.28319338
000310 cb a2 cd bd 90 18 34 3e 55 ac 75 be 32 cf 8c 3d
       -0.10040816 0.17587495 -0.2399152 0.06875457
000320 af 17 ea 3b fc fe d9 be e2 f3 21 3e e7 16 ea 3b
       0.0071439366 -0.4257735 0.1581569 0.0071438435
000330 be f2 7a bd 38 b7 1c 3e a5 ba a2 bc 61 e8 46 3e
       -0.061266653 0.15304267 -0.01986439 0.19424583
000340 3f d4 0e be 38 fb 99 bc 0e 5e a9 bd 64 a5 03 be
       -0.13948153 -0.018796548 -0.08269893 -0.1285606
000350 de bd 03 bd a3 db 0f 3e e0 97 0a be cc c4 71 bd
       -0.032163493 0.14048629 -0.13534498 -0.05902557
000360 91 15 97 bd a9 5a 28 be 44 cf f9 bd e2 1c 72 bd
       -0.0737716 -0.16440834 -0.12197736 -0.059109576
000370 ca 96 87 be 26 7b 5a 3e ad 7d 9b bb 2e 17 5d be
       -0.2648223 0.2133604 -0.0047452063 -0.21590874
000380 cb dd 91 be 71 1d bc 3c a4 79 0a be 84 9e 96 3b
       -0.28489527 0.022963258 -0.13522965 0.0045965333
000390 44 66 02 3e 10 b6 1e be 42 84 12 3f 49 09 43 be
       0.12734324 -0.15499139 0.5723306 -0.19046511
0003a0 87 3c b5 bd 70 4d bd 3e 46 03 dd 3d 87 3e 54 bd
       -0.08849435 0.36973143 0.1079164 -0.051817443
0003b0 fe 11 53 be e3 97 f6 3c 52 f8 d2 bd 8f 3b 12 3e
       -0.20612332 0.030101722 -0.103012696 0.14280532
0003c0 1f f2 00 80 ad d6 05 80 1c 08 00 80 8d 10 1b bd
       -8.6857e-41 -5.36189e-40 -2.909e-42 -0.03785758
0003d0 c4 d6 d2 bb 09 e8 ea 3a 2b 09 df bd 8e 3d 10 3e
       -0.0064342935 0.0017921935 -0.108904205 0.14085981
0003e0 01 eb ea 3a 97 e8 2f 3e 35 c3 f7 3d 7e f7 78 3a
       0.001792282 0.1717857 0.1209778 0.00094973284
0003f0 ee cd 24 3e 6e 21 cc bb b3 e8 ea 3a 4c e5 ae be
       0.16094181 -0.006229571 0.0017922133 -0.34159315

bfc1.parameter_0_1 f4 [32]
000000 15 98 fc bd 2f 7f ef bd ae 2b 1b bf ae 99 5e be
       -0.12333695 -0.1169418 -0.60613525 -0.21738312
000010 23 4d 56 be 7b 37 42 be a7 1c 37 be f0 33 1c be
       -0.20927863 -0.18966477 -0.17882024 -0.15254188
000020 f0 2f 28 3c dd b9 4e be 1a 65 bd bd f9 01 69 be
       0.010265335 -0.20188089 -0.09247799 -0.22754659
000030 59 69 92 be 82 c8 a1 be 14 24 7e be db 70 11 be
       -0.28596 -0.31598288 -0.2481845 -0.14203207
000040 b7 5f 6d be 8c 32 80 be f9 73 3d be 28 75 83 bd
       -0.23181044 -0.25038564 -0.18501271 -0.0641883
000050 e7 ce 0f be 92 63 f3 bd 0d 2b 1f be f5 7c 95 bd
       -0.1404377 -0.11884226 -0.15543766 -0.07299224
000060 24 56 54 be 24 25 d6 bd 64 7c 2a be fa f9 bf bd
       -0.20735985 -0.10456303 -0.16649014 -0.09373851
000070 f8 99 0b be 2f ac 1f be 23 67 c9 be a1 fa fb bd
       -0.13632953 -0.15593027 -0.393365 -0.12303663

bfc2.parameter_0_0 f4 [32, 32]
000000 5b 6e ba be 8d 95 35 be c3 f9 92 3e c3 72 f3 bd
       -0.3641232 -0.1773283 0.28706178 -0.118871234
000010 13 25 93 3e fe b3 84 be 46 1d cb bd d5 d0 af be
       0.28739223 -0.25918573 -0.09917693 -0.34339014
000020 0b e6 ed be d5 ee 3e 3e 0a b2 69 be 6d 50 b3 be
       -0.4646457 0.18645795 -0.22821823 -0.35022298
000030 fd d6 25 3e 27 1c 15 3c 58 fd 1a 3d 1d b1 6a 3e
       0.16195293 0.00910095 0.037839264 0.22919126
000040 35 9b 1b be 78 31 39 3e f6 4d ef bd f6 c5 e3 bc
       -0.15195926 0.18085277 -0.11684792 -0.027804356
000050 60 e3 67 3c c4 72 34 3e d3 d0 10 3e 28 7e 46 3e
       0.0141533315 0.17621905 0.1414216 0.19384062
000060 f7 8b c3 3b 2c 31 55 bd 53 c4 b4 bd df 88 0b 3d
       0.005967613 -0.052048847 -0.088265084 0.034066077
000070 90 e9 2c bd 20 bf 32 be 1d 15 6b 3e 1e 0a 64 be
       -0.04221493 -0.17455721 0.22957273 -0.22269484
000080 2b 10 29 b8 f5 fb 53 ba 26 5c b6 b7 8a 62 1f b8
       -4.0307797e-05 -0.0008086556 -2.1739e-05 -3.8000326e-05
000090 2f 65 88 b7 11 50 4d b8 89 f4 06 36 1e 57 a6 b8
       -1.625958e-05 -4.8950376e-05 2.0109894e-06 -7.931724e-05
0000a0 bb 0a 31 ba 5d 49 23 b8 d5 47 12 b8 f8 16 da b8
       -0.0006753613 -3.8930553e-05 -3.487601e-05 -0.00010399328
0000b0 bc d7 72 b8 1f cb 48 b7 5c a4 e8 b4 ff 61 fb b7
       -5.7898214e-05 -1.1968222e-05 -4.3332955e-07 -2.9967165e-05
0000c0 18 00 0c 36 8f a0 f5 b7 85 e3 0d b7 1e 0f 2a b9
       2.086168e-06 -2.9281042e-05 -8.457228e-06 -0.00016218095
0000d0 cd 3f 83 b7 24 38 c4 b7 1f da 0d b6 dc a1 4e b9
       -1.5646126e-05 -2.3391163e-05 -2.11376e-06 -0.00019705988
0000e0 e8 e0 98 b7 61 ba f3 b7 db d0 05 b8 3d 58 9b b8
       -1.8224542e-05 -2.9054647e-05 -3.1904183e-05 -7.4074116e-05
0000f0 47 9e da b7 34 8f e8 b8 b4 e7 11 b8 a1 9c 1a b8
       -2.6061329e-05 -0.00011089296 -3.4786484e-05 -3.6862333e-05
000100 a7 b8 b7 bb b2 7f 81 3c df 8f 13 3e e3 96 0f 3d
       -0.005606729 0.01580796 0.14410351 0.035056006
000110 7f 44 f6 bc 40 78 b8 bb d7 eb ff 3d 0a 45 5f bb
       -0.030061958 -0.0056295693 0.12496155 -0.003406825
000120 d9 cf f1 3b 44 e4 35 3f a6 54 f7 bb 76 4c ae bb
       0.0073795137 0.7105143 -0.0075479327 -0.0053191734
000130 ca a7 9c 3e f6 93 43 3d 2d dd 07 bd 92 7a 27 bd
       0.30596763 0.04774853 -0.033169914 -0.040888377
000140 77 9d 57 bd 75 c8 17 3d 65 66 30 bd 61 e6 c6 3c
       -0.052640405 0.037056405 -0.0430664 0.024279775
000150 06 0a 0c bd 77 a9 2b bd 5f ea 93 bb 46 14 71 bc
       -0.034189247 -0.04190966 -0.004514023 -0.014714306
000160 ac 8d 8c bc f9 c2 d5 3d ba 45 c8 3c 1d f4 22 3f
       -0.017157398 0.10437579 0.02444731 0.6365374
000170 e7 55 b9 3e 0d ad 7b 3d 61 4c cb 3e 14 48 a0 3a
       0.3619835 0.06144433 0.3970671 0.0012228512
000180 e1 01 c6 bd a6 6c 7a 3d 83 ed 3d 3e 44 60 84 be
       -0.09668327 0.06113877 0.18547635 -0.25854695
000190 b1 c8 c7 3d 59 53 0b be 93 4f 1a 3e 19 e6 4e 3c
       0.09755076 -0.13606013 0.15069418 0.012628102
0001a0 c4 5d d2 bd 9a 34 d9 3d 82 39 bb 3c d2 63 ee bd
       -0.102717906 0.10605736 0.02285457 -0.11640133
0001b0 e8 03 98 3d 24 7d ca 3e 01 b6 9a 3e 72 62 2f 3e
       0.0742262 0.395486 0.30216983 0.17127398
0001c0 57 ee 78 3e cd ac c5 3d 9c 72 1f 3e e3 97 1e 3e
       0.2430967 0.096521 0.15571064 0.15487628
0001d0 5a 9f b0 bc c0 5f bf 3d 2c f5 55 3e 79 1e 57 ba
       -0.02156036 0.09344435 0.20894307 -0.000820614
0001e0 b2 e8 b7 3e 33 09 40 3e 20 41 90 3d 3c 48 10 3e
       0.3591972 0.18753509 0.070436716 0.14090055
0001f0 f3 46 85 3d 2c 0f 10 be d0 2a 82 3d cd 4d 20 3e
       0.06507673 -0.14068288 0.06355822 0.15654679
000200 3d 32 82 3b f0 e2 43 3e ae 23 e3 3d 3f 73 11 be
       0.003973274 0.19129539 0.1109079 -0.14204119
000210 bd 9e 8a bd 84 04 d9 bc d3 26 41 be 67 d8 c0 bd
       -0.06768558 -0.026491411 -0.18862467 -0.094162755
000220 c5 85 66 be 02 44 22 3d 6d 2f da bd 3d 40 b2 3e
       -0.22511967 0.03961564 -0.10653577 0.34814635
000230 b2 90 a5 3d 50 d8 4e 3d 96 a3 86 3d 2a b7 ca bd
       0.08084239 0.05049926 0.0657417 -0.09898217
000240 3b c6 58 3e 1b b3 1d 3c ad 8a bc 3d d0 e5 85 be
       0.21169369 0.009625222 0.09206138 -0.26151896
000250 ad 67 c7 3d 27 d7 82 bd bb 92 d1 bd 06 9f 34 bd
       0.097365715 -0.06388693 -0.10233065 -0.04409697
000260 d6 64 bb 3d 54 ee 19 bd a5 58 2e 3e b5 f1 46 bb
       0.09150092 -0.037580803 0.17026003 -0.003035647
000270 83 c7 2f 3e be a4 8e be e2 5a e7 3d df f7 a4 bd
       0.17165951 -0.27860063 0.112966314 -0.0805509
000280 80 9c 69 bd 06 8b 57 3d f8 d9 44 bc b9 62 2e 3d
       -0.057034016 0.052622817 -0.012014858 0.042574618
000290 b0 5c ac 3d cb 01 94 bd ac 00 76 3e e5 17 87 bd
       0.08416116 -0.072269045 0.24023694 -0.065963544
0002a0 e1 7e 74 bd 51 a6 e5 3e ba 3b 4d be a8 f8 1f 3d
       -0.059691314 0.44853452 -0.20042315 0.039055496
0002b0 55 94 a4 3d 01 08 f0 bd f5 8d 8a 3d fa e7 83 bd
       0.080361046 -0.117202766 0.067653574 -0.064407304
0002c0 e8 30 b1 bd 1e 52 14 3e 1a 00 af bd d9 a6 97 3d
       -0.08651906 0.1448445 -0.08544941 0.074048705
0002d0 1f 58 5f bc ca cb 4b be c4 09 f0 3c 11 24 f9 bd
       -0.01363185 -0.19901958 0.029301532 -0.12165082
0002e0 1c 3e 83 3d 0c ad 8a 3e 93 c1 1f bd ba d2 a0 3e
       0.06408331 0.2708515 -0.039002966 0.31410772
0002f0 c1 25 05 3e e5 91 23 3e 74 b3 99 3d 3e e6 07 3d
       0.13002683 0.15973623 0.07504931 0.03317856
000300 78 ac 1f be 7a 17 fa 3d 44 c4 29 3e a8 2e 1f be
       -0.15593135 0.12211509 0.16578776 -0.15545142
000310 71 87 7c 3c 88 1c db bd 5d 4a 75 3e 6b f6 86 be
       0.015413151 -0.10698801 0.23954149 -0.26359877
000320 3d a5 df 3c 08 0f 5e 3e e6 d3 8b be 00 aa 95 be
       0.027300471 0.21685421 -0.27310103 -0.29231262
000330 70 34 0b 3e 37 64 5c 3d 6e d6 78 3c a0 61 19 3e
       0.13594222 0.05380651 0.015187843 0.14978647
000340 cf f1 e0 bd e3 a4 0e be 7f 4b 2c bb 29 67 b1 3d
       -0.10983621 -0.13930087 -0.0026290116 0.08662254
000350 ad 59 09 bc e4 c8 57 3c 8c c9 0b 3d 98 91 a9 be
       -0.008383197 0.013170455 0.034127757 -0.33118892
000360 e4 46 04 be 8c ab 19 3e 89 06 61 3d 29 ec 0a 3e
       -0.12917668 0.15006846 0.054937873 0.1356665
000370 f9 da 39 3e 92 73 94 3e 58 57 be 3d d0 f5 8d bd
       0.18149938 0.28994423 0.09294003 -0.06931651
000380 9f a4 20 bc 8d 0a 9e bb 33 fb c2 bb 02 5e f8 bb
       -0.009804874 -0.004823035 -0.0059503554 -0.007579566
000390 9a ef df ba c9 d0 d7 ba df a6 85 ba c6 df b2 bb
       -0.0017084957 -0.0016465421 -0.0010196826 -0.005458805
0003a0 e0 fd 04 bc ef c5 b0 b9 c2 54 50 bc ef b9 3c bc
       -0.008117169 -0.00033716808 -0.01271552 -0.011518939
0003b0 3b 2d c2 bb 41 95 a3 ba 84 a7 2e ba 46 a0 ba ba
       -0.005925802 -0.0012480394 -0.0006662535 -0.0014238439
0003c0 8d 95 b8 ba c3 76 99 b9 70 13 53 ba ae ea 23 bc
       -0.0014082656 -0.00029270918 -0.00080519076 -0.0100046825
0003d0 96 97 60 3a 66 21 01 3b 19 78 49 bb f0 42 95 bb
       0.000856751 0.0019703745 -0.003074175 -0.0045550987
0003e0 46 64 84 ba eb 94 34 b9 d0 fa 0f bb 96 17 d9 b9
       -0.0010100685 -0.00017221614 -0.0021969564 -0.00041407038
0003f0 15 5c a5 bb e0 34 ec 39 a1 f8 a3 bb 91 22 cd bb
       -0.0050463774 0.00045052823 -0.005004004 -0.006260224

bfc2.parameter_0_1 f4 [32]
000000 e7 e7 a6 39 fd bf e8 b7 78 7e 9e 3c 88 11 da bd
       0.00031834768 -2.7745957e-05 0.019347414 -0.10647875
000010 fa 09 7c 3c 5f b2 a4 3d 75 78 cb bc 03 82 b5 b9
       0.015383238 0.08041834 -0.024837712 -0.00034619877
000020 7d 20 11 3e 26 f5 52 bd 5b 57 17 b0 51 45 66 3e
       0.1417255 -0.051503323 -5.505762e-10 0.2248738
000030 4c 16 18 a3 0e 60 0d 3e 90 87 15 3d ea ab 05 af
       -8.244658e-18 0.13806173 0.036506236 -1.2157356e-10
000040 38 63 4a 3e 49 e9 09 3e 10 42 56 3c d1 c9 58 32
       0.19764411 0.13467897 0.013077274 1.26187425e-08
000050 f3 14 8d 3e 28 e1 65 3e 9c 09 14 be 4c 07 a8 bc
       0.27555045 0.22449172 -0.1445679 -0.020511292
000060 d5 05 30 bc ac 3c 8d 3e fa 3b 05 3e 10 7d ba b0
       -0.010743578 0.2758535 0.1301116 -1.3568826e-09
000070 30 5b d3 3c b8 cf 19 be 54 e7 0a be cb 75 89 bc
       0.025800318 -0.15020645 -0.13564807 -0.0167798

fc1.0.parameter_0_0 f4 [32, 54]
000000 bb 65 ac 3d fc e7 df bd c6 2d ef 3e 13 9b 25 be
       0.08417841 -0.109329194 0.4671461 -0.16172437
000010 bb 25 6d 3e dc ee e1 3c 78 f4 30 be 48 ee fd 3d
       0.23158924 0.027579717 -0.17280757 0.12398964
000020 e1 fb cb 3d 5f d8 d0 bd 94 45 8c bd fc 89 1e be
       0.099601515 -0.101975195 -0.068492085 -0.15482324
000030 07 6b 81 3d 17 b4 8a 3d cc db 79 be 97 46 39 bd
       0.06319242 0.06772631 -0.24400252 -0.045233335
000040 c1 70 12 3e 9d 26 61 bd 5a 09 0c be cf 8d 17 be
       0.14300825 -0.054968465 -0.13675442 -0.1480019
000050 84 21 63 bc 9b 1d 69 bd bf 52 1a 3d 5a c7 ca bc
       -0.013862971 -0.056913 0.03767657 -0.024753261
000060 af 0c 02 80 d6 be 01 00 d8 ee 01 80 50 01 cc 3c
       -1.88221e-40 1.60295e-40 -1.77516e-40 0.02490297
000070 a2 7d b8 bd 88 43 38 3b ed 0d 42 bd 16 a0 eb 3d
       -0.090083376 0.0028116424 -0.047376562 0.11505143
000080 3a 3f 38 3b 15 3f 39 be 61 bb 71 bd 48 70 2a bd
       0.0028113858 -0.1809047 -0.05901659 -0.041610986
000090 e1 03 1a bd a1 ce a1 bd 18 40 38 3b b9 83 85 3d
       -0.037601355 -0.079007395 0.0028114375 0.06519265
0000a0 27 67 ec bd b6 41 38 3b 7d e2 87 bd bb a8 65 bd
       -0.11543112 0.0028115339 -0.06634996 -0.056069117
0000b0 33 43 3e 3d ca 06 b3 3c f1 44 e0 3c 02 3b 5c 3e
       0.046450805 0.021853823 0.027376624 0.21506885
0000c0 49 fd 7c bd af d4 79 bd 9f bc 78 3e 88 a6 74 3d
       -0.06176499 -0.060993847 0.24290703 0.05972913
0000d0 0c ad 75 bc ab 4d 81 3e f2 1c b7 bc 45 a0 0e 3e
       -0.014994871 0.25254568 -0.02235267 0.13928325
0000e0 21 2a 39 3e ea a2 79 bd b3 22 cb bd 2a a6 42 be
       0.18082477 -0.060946383 -0.09918728 -0.19008699
0000f0 0d 3b 4a be f9 e6 ed 3d a5 46 19 be 3b 8b 9d bd
       -0.19749089 0.1161632 -0.14968355 -0.07692572
000100 a6 20 2d 3d 33 0d 13 3f 28 0e 62 3c 4a 4b 81 3e
       0.042267464 0.57442015 0.01379732 0.25252753
000110 ca 84 ee bd 0d f1 59 3e c7 c9 35 3e b4 9a b4 be
       -0.11646421 0.2128336 0.17752753 -0.3527428
000120 3d 4b 2a 3d 69 b4 3c 3e ca 7d f6 3d 5a b6 85 3e
       0.04157566 0.18428196 0.12035711 0.26115686
000130 eb 76 7a 3e 96 83 3a ba 08 cf 00 00 5d 27 01 80
       0.24459426 -0.0007114945 7.4269e-41 -1.05956e-40
000140 f2 cf 00 80 98 92 e1 bd 56 ad 3e bd d5 a9 d0 3b
       -7.4597e-41 -0.11014289 -0.046552025 0.006367902
000150 1e 0d 08 bd c3 d1 88 be 45 a9 d0 3b ed 8c bb bd
       -0.033215635 -0.26722535 0.0063678348 -0.09157739
000160 41 10 77 bc d7 f6 0f 3d b6 c8 d2 bd f8 48 c9 bd
       -0.015079559 0.035147514 -0.10292189 -0.09828371
000170 c2 a9 d0 3b 3c f2 8b 3e b3 e8 8f be 59 aa d0 3b
       0.006367893 0.27333248 -0.28107223 0.0063679633
000180 46 6e eb 3d 2d 4a ed bd 4d 26 15 3e 4d 2a 51 bd
       0.11495642 -0.115864135 0.14565392 -0.05106573
000190 06 6e b6 3c cb ec b9 bc c6 ef 9a be e6 14 75 bd
       0.02226926 -0.02269592 -0.30261058 -0.059834383
0001a0 7f 33 9d 3e 6f 72 b9 3e e6 b8 df 3c b8 81 4a 3d
       0.3070335 0.36220118 0.027309846 0.049440116
0001b0 17 4f b1 bc d0 b6 27 3d 3b 0a 1e be 5a ce a1 bd
       -0.021644158 0.040945828 -0.1543359 -0.079006866
0001c0 3e eb 77 3c a0 97 aa 3d fa 0f 9a bc 5e 90 34 bb
       0.01513177 0.083297014 -0.018806446 -0.002755187
0001d0 ff 9d 4b be b3 6a 58 bc 9a 1d 3a bd 4a f8 0d 3e
       -0.1988449 -0.013209033 -0.045438386 0.13864246
0001e0 c8 8e 5a 3a 2b ac a0 3d ea cf c6 bd a0 51 76 bb
       0.0008337316 0.078453384 -0.09707625 -0.0037585273
0001f0 0b f0 ca ba 8b bc f3 3b 86 a3 a0 3c 82 ef a8 3c
       -0.0015482915 0.0074382476 0.019609224 0.020622019
000200 a8 2c 0d 3e e3 1f 85 3c c2 03 f3 bc e6 c5 e2 3f
       0.13786566 0.016250556 -0.029664878 1.7716644
000210 db 8a 02 00 f8 39 00 80 17 52 00 80 12 c2 41 3b
       2.33483e-40 -2.0795e-41 -2.9448e-41 0.0029565138
000220 81 47 e6 3c 2d 58 15 3c 7e 30 12 bc 76 9b ce bc
       0.028110268 0.009115261 -0.008922694 -0.025220614
000230 13 58 15 3c 29 62 b0 3d 2c c1 0d 3d 5b bb 20 bd
       0.009115237 0.086124726 0.03460805 -0.039241176
000240 98 49 55 3b 5c 43 32 bc 0e 58 15 3c 53 0f 3c 3e
       0.0032545086 -0.010880318 0.009115232 0.1836522
000250 bf ed e5 3c 0c 58 15 3c b4 e6 8d bd a6 95 b6 3d
       0.028067468 0.00911523 -0.06928769 0.08915262
000260 f7 1d c7 bc 8b 95 52 bd bf cb bb bc 46 04 79 3e
       -0.02430628 -0.051412147 -0.022924302 0.24318036
000270 96 82 65 bc 13 9b 96 3c 52 9b f0 bc 72 3c 22 3c
       -0.014008185 0.018384492 -0.029370937 0.009902107
000280 11 10 34 3c d8 06 68 bb 03 53 db bd fd dc 0e bd
       0.010990159 -0.003540447 -0.107091926 -0.03487872
000290 a0 5f cb be 81 37 96 3d ac 03 9e bd 60 ec 31 3d
       -0.39721394 0.07334805 -0.07715544 0.043438315
0002a0 0d 30 57 3d 03 55 79 bd f3 a1 af 3e 69 b5 82 3c
       0.05253606 -0.06087209 0.34303245 0.015955644
0002b0 d9 35 a9 bd ef cd 13 3f f5 ec 73 3d 2d 1b f8 bd
       -0.08262224 0.57736105 0.05955215 -0.12114558
0002c0 6a 62 87 be 29 e1 f8 bd b7 66 68 bd 91 98 29 3d
       -0.2644227 -0.12152321 -0.05673858 0.041405264
0002d0 0b c6 07 3d 52 f7 91 3d fa ca 9a 3e 33 67 80 3e
       0.033147853 0.07127251 0.30232984 0.25078735
0002e0 8a 07 b1 be d3 c2 44 bd 20 88 01 80 87 91 02 00
       -0.34576064 -0.04803736 -1.40668e-40 2.35876e-40
0002f0 04 a1 00 00 8b 07 9f bd 88 9e 8e 3e fc 16 ea 3b
       5.7762e-41 -0.077651106 0.27855325 0.007143853
000300 84 ec 88 be 78 fc 91 be af 17 ea 3b b9 fe 90 3e
       -0.26742947 -0.2851293 0.0071439366 0.28319338
000310 cb a2 cd bd 90 18 34 3e 55 ac 75 be 32 cf 8c 3d
       -0.10040816 0.17587495 -0.2399152 0.06875457
000320 af 17 ea 3b fc fe d9 be e2 f3 21 3e e7 16 ea 3b
       0.0071439366 -0.4257735 0.1581569 0.0071438435
000330 be f2 7a bd 38 b7 1c 3e a5 ba a2 bc 61 e8 46 3e
       -0.061266653 0.15304267 -0.01986439 0.19424583
000340 3f d4 0e be 38 fb 99 bc 0e 5e a9 bd 64 a5 03 be
       -0.13948153 -0.018796548 -0.08269893 -0.1285606
000350 de bd 03 bd a3 db 0f 3e e0 97 0a be cc c4 71 bd
       -0.032163493 0.14048629 -0.13534498 -0.05902557
000360 91 15 97 bd a9 5a 28 be 44 cf f9 bd e2 1c 72 bd
       -0.0737716 -0.16440834 -0.12197736 -0.059109576
000370 ca 96 87 be 26 7b 5a 3e ad 7d 9b bb 2e 17 5d be
       -0.2648223 0.2133604 -0.0047452063 -0.21590874
000380 cb dd 91 be 71 1d bc 3c a4 79 0a be 84 9e 96 3b
       -0.28489527 0.022963258 -0.13522965 0.0045965333
000390 44 66 02 3e 10 b6 1e be 42 84 12 3f 49 09 43 be
       0.12734324 -0.15499139 0.5723306 -0.19046511
0003a0 87 3c b5 bd 70 4d bd 3e 46 03 dd 3d 87 3e 54 bd
       -0.08849435 0.36973143 0.1079164 -0.051817443
0003b0 fe 11 53 be e3 97 f6 3c 52 f8 d2 bd 8f 3b 12 3e
       -0.20612332 0.030101722 -0.103012696 0.14280532
0003c0 1f f2 00 80 ad d6 05 80 1c 08 00 80 8d 10 1b bd
       -8.6857e-41 -5.36189e-40 -2.909e-42 -0.03785758
0003d0 c4 d6 d2 bb 09 e8 ea 3a 2b 09 df bd 8e 3d 10 3e
       -0.0064342935 0.0017921935 -0.108904205 0.14085981
0003e0 01 eb ea 3a 97 e8 2f 3e 35 c3 f7 3d 7e f7 78 3a
       0.001792282 0.1717857 0.1209778 0.00094973284
0003f0 ee cd 24 3e 6e 21 cc bb b3 e8 ea 3a 4c e5 ae be
       0.16094181 -0.006229571 0.0017922133 -0.34159315

fc1.0.parameter_0_1 f4 [32]
000000 15 98 fc bd 2f 7f ef bd ae 2b 1b bf ae 99 5e be
       -0.12333695 -0.1169418 -0.60613525 -0.21738312
000010 23 4d 56 be 7b 37 42 be a7 1c 37 be f0 33 1c be
       -0.20927863 -0.18966477 -0.17882024 -0.15254188
000020 f0 2f 28 3c dd b9 4e be 1a 65 bd bd f9 01 69 be
       0.010265335 -0.20188089 -0.09247799 -0.22754659
000030 59 69 92 be 82 c8 a1 be 14 24 7e be db 70 11 be
       -0.28596 -0.31598288 -0.2481845 -0.14203207
000040 b7 5f 6d be 8c 32 80 be f9 73 3d be 28 75 83 bd
       -0.23181044 -0.25038564 -0.18501271 -0.0641883
000050 e7 ce 0f be 92 63 f3 bd 0d 2b 1f be f5 7c 95 bd
       -0.1404377 -0.11884226 -0.15543766 -0.07299224
000060 24 56 54 be 24 25 d6 bd 64 7c 2a be fa f9 bf bd
       -0.20735985 -0.10456303 -0.16649014 -0.09373851
000070 f8 99 0b be 2f ac 1f be 23 67 c9 be a1 fa fb bd
       -0.13632953 -0.15593027 -0.393365 -0.12303663

fc2.0.parameter_0_0 f4 [32, 32]
000000 5b 6e ba be 8d 95 35 be c3 f9 92 3e c3 72 f3 bd
       -0.3641232 -0.1773283 0.28706178 -0.118871234
000010 13 25 93 3e fe b3 84 be 46 1d cb bd d5 d0 af be
       0.28739223 -0.25918573 -0.09917693 -0.34339014
000020 0b e6 ed be d5 ee 3e 3e 0a b2 69 be 6d 50 b3 be
       -0.4646457 0.18645795 -0.22821823 -0.35022298
000030 fd d6 25 3e 27 1c 15 3c 58 fd 1a 3d 1d b1 6a 3e
       0.16195293 0.00910095 0.037839264 0.22919126
000040 35 9b 1b be 78 31 39 3e f6 4d ef bd f6 c5 e3 bc
       -0.15195926 0.18085277 -0.11684792 -0.027804356
000050 60 e3 67 3c c4 72 34 3e d3 d0 10 3e 28 7e 46 3e
       0.0141533315 0.17621905 0.1414216 0.19384062
000060 f7 8b c3 3b 2c 31 55 bd 53 c4 b4 bd df 88 0b 3d
       0.005967613 -0.052048847 -0.088265084 0.034066077
000070 90 e9 2c bd 20 bf 32 be 1d 15 6b 3e 1e 0a 64 be
       -0.04221493 -0.17455721 0.22957273 -0.22269484
000080 2b 10 29 b8 f5 fb 53 ba 26 5c b6 b7 8a 62 1f b8
       -4.0307797e-05 -0.0008086556 -2.1739e-05 -3.8000326e-05
000090 2f 65 88 b7 11 50 4d b8 89 f4 06 36 1e 57 a6 b8
       -1.625958e-05 -4.8950376e-05 2.0109894e-06 -7.931724e-05
0000a0 bb 0a 31 ba 5d 49 23 b8 d5 47 12 b8 f8 16 da b8
       -0.0006753613 -3.8930553e-05 -3.487601e-05 -0.00010399328
0000b0 bc d7 72 b8 1f cb 48 b7 5c a4 e8 b4 ff 61 fb b7
       -5.7898214e-05 -1.1968222e-05 -4.3332955e-07 -2.9967165e-05
0000c0 18 00 0c 36 8f a0 f5 b7 85 e3 0d b7 1e 0f 2a b9
       2.086168e-06 -2.9281042e-05 -8.457228e-06 -0.00016218095
0000d0 cd 3f 83 b7 24 38 c4 b7 1f da 0d b6 dc a1 4e b9
       -1.5646126e-05 -2.3391163e-05 -2.11376e-06 -0.00019705988
0000e0 e8 e0 98 b7 61 ba f3 b7 db d0 05 b8 3d 58 9b b8
       -1.8224542e-05 -2.9054647e-05 -3.1904183e-05 -7.4074116e-05
0000f0 47 9e da b7 34 8f e8 b8 b4 e7 11 b8 a1 9c 1a b8
       -2.6061329e-05 -0.00011089296 -3.4786484e-05 -3.6862333e-05
000100 a7 b8 b7 bb b2 7f 81 3c df 8f 13 3e e3 96 0f 3d
       -0.005606729 0.01580796 0.14410351 0.035056006
000110 7f 44 f6 bc 40 78 b8 bb d7 eb ff 3d 0a 45 5f bb
       -0.030061958 -0.0056295693 0.12496155 -0.003406825
000120 d9 cf f1 3b 44 e4 35 3f a6 54 f7 bb 76 4c ae bb
       0.0073795137 0.7105143 -0.0075479327 -0.0053191734
000130 ca a7 9c 3e f6 93 43 3d 2d dd 07 bd 92 7a 27 bd
       0.30596763 0.04774853 -0.033169914 -0.040888377
000140 77 9d 57 bd 75 c8 17 3d 65 66 30 bd 61 e6 c6 3c
       -0.052640405 0.037056405 -0.0430664 0.024279775
000150 06 0a 0c bd 77 a9 2b bd 5f ea 93 bb 46 14 71 bc
       -0.034189247 -0.04190966 -0.004514023 -0.014714306
000160 ac 8d 8c bc f9 c2 d5 3d ba 45 c8 3c 1d f4 22 3f
       -0.017157398 0.10437579 0.02444731 0.6365374
000170 e7 55 b9 3e 0d ad 7b 3d 61 4c cb 3e 14 48 a0 3a
       0.3619835 0.06144433 0.3970671 0.0012228512
000180 e1 01 c6 bd a6 6c 7a 3d 83 ed 3d 3e 44 60 84 be
       -0.09668327 0.06113877 0.18547635 -0.25854695
000190 b1 c8 c7 3d 59 53 0b be 93 4f 1a 3e 19 e6 4e 3c
       0.09755076 -0.13606013 0.15069418 0.012628102
0001a0 c4 5d d2 bd 9a 34 d9 3d 82 39 bb 3c d2 63 ee bd
       -0.102717906 0.10605736 0.02285457 -0.11640133
0001b0 e8 03 98 3d 24 7d ca 3e 01 b6 9a 3e 72 62 2f 3e
       0.0742262 0.395486 0.30216983 0.17127398
0001c0 57 ee 78 3e cd ac c5 3d 9c 72 1f 3e e3 97 1e 3e
       0.2430967 0.096521 0.15571064 0.15487628
0001d0 5a 9f b0 bc c0 5f bf 3d 2c f5 55 3e 79 1e 57 ba
       -0.02156036 0.09344435 0.20894307 -0.000820614
0001e0 b2 e8 b7 3e 33 09 40 3e 20 41 90 3d 3c 48 10 3e
       0.3591972 0.18753509 0.070436716 0.14090055
0001f0 f3 46 85 3d 2c 0f 10 be d0 2a 82 3d cd 4d 20 3e
       0.06507673 -0.14068288 0.06355822 0.15654679
000200 3d 32 82 3b f0 e2 43 3e ae 23 e3 3d 3f 73 11 be
       0.003973274 0.19129539 0.1109079 -0.14204119
000210 bd 9e 8a bd 84 04 d9 bc d3 26 41 be 67 d8 c0 bd
       -0.06768558 -0.026491411 -0.18862467 -0.094162755
000220 c5 85 66 be 02 44 22 3d 6d 2f da bd 3d 40 b2 3e
       -0.22511967 0.03961564 -0.10653577 0.34814635
000230 b2 90 a5 3d 50 d8 4e 3d 96 a3 86 3d 2a b7 ca bd
       0.08084239 0.05049926 0.0657417 -0.09898217
000240 3b c6 58 3e 1b b3 1d 3c ad 8a bc 3d d0 e5 85 be
       0.21169369 0.009625222 0.09206138 -0.26151896
000250 ad 67 c7 3d 27 d7 82 bd bb 92 d1 bd 06 9f 34 bd
       0.097365715 -0.06388693 -0.10233065 -0.04409697
000260 d6 64 bb 3d 54 ee 19 bd a5 58 2e 3e b5 f1 46 bb
       0.09150092 -0.037580803 0.17026003 -0.003035647
000270 83 c7 2f 3e be a4 8e be e2 5a e7 3d df f7 a4 bd
       0.17165951 -0.27860063 0.112966314 -0.0805509
000280 80 9c 69 bd 06 8b 57 3d f8 d9 44 bc b9 62 2e 3d
       -0.057034016 0.052622817 -0.012014858 0.042574618
000290 b0 5c ac 3d cb 01 94 bd ac 00 76 3e e5 17 87 bd
       0.08416116 -0.072269045 0.24023694 -0.065963544
0002a0 e1 7e 74 bd 51 a6 e5 3e ba 3b 4d be a8 f8 1f 3d
       -0.059691314 0.44853452 -0.20042315 0.039055496
0002b0 55 94 a4 3d 01 08 f0 bd f5 8d 8a 3d fa e7 83 bd
       0.080361046 -0.117202766 0.067653574 -0.064407304
0002c0 e8 30 b1 bd 1e 52 14 3e 1a 00 af bd d9 a6 97 3d
       -0.08651906 0.1448445 -0.08544941 0.074048705
0002d0 1f 58 5f bc ca cb 4b be c4 09 f0 3c 11 24 f9 bd
       -0.01363185 -0.19901958 0.029301532 -0.12165082
0002e0 1c 3e 83 3d 0c ad 8a 3e 93 c1 1f bd ba d2 a0 3e
       0.06408331 0.2708515 -0.039002966 0.31410772
0002f0 c1 25 05 3e e5 91 23 3e 74 b3 99 3d 3e e6 07 3d
       0.13002683 0.15973623 0.07504931 0.03317856
000300 78 ac 1f be 7a 17 fa 3d 44 c4 29 3e a8 2e 1f be
       -0.15593135 0.12211509 0.16578776 -0.15545142
000310 71 87 7c 3c 88 1c db bd 5d 4a 75 3e 6b f6 86 be
       0.015413151 -0.10698801 0.23954149 -0.26359877
000320 3d a5 df 3c 08 0f 5e 3e e6 d3 8b be 00 aa 95 be
       0.027300471 0.21685421 -0.27310103 -0.29231262
000330 70 34 0b 3e 37 64 5c 3d 6e d6 78 3c a0 61 19 3e
       0.13594222 0.05380651 0.015187843 0.14978647
000340 cf f1 e0 bd e3 a4 0e be 7f 4b 2c bb 29 67 b1 3d
       -0.10983621 -0.13930087 -0.0026290116 0.08662254
000350 ad 59 09 bc e4 c8 57 3c 8c c9 0b 3d 98 91 a9 be
       -0.008383197 0.013170455 0.034127757 -0.33118892
000360 e4 46 04 be 8c ab 19 3e 89 06 61 3d 29 ec 0a 3e
       -0.12917668 0.15006846 0.054937873 0.1356665
000370 f9 da 39 3e 92 73 94 3e 58 57 be 3d d0 f5 8d bd
       0.18149938 0.28994423 0.09294003 -0.06931651
000380 9f a4 20 bc 8d 0a 9e bb 33 fb c2 bb 02 5e f8 bb
       -0.009804874 -0.004823035 -0.0059503554 -0.007579566
000390 9a ef df ba c9 d0 d7 ba df a6 85 ba c6 df b2 bb
       -0.0017084957 -0.0016465421 -0.0010196826 -0.005458805
0003a0 e0 fd 04 bc ef c5 b0 b9 c2 54 50 bc ef b9 3c bc
       -0.008117169 -0.00033716808 -0.01271552 -0.011518939
0003b0 3b 2d c2 bb 41 95 a3 ba 84 a7 2e ba 46 a0 ba ba
       -0.005925802 -0.0012480394 -0.0006662535 -0.0014238439
0003c0 8d 95 b8 ba c3 76 99 b9 70 13 53 ba ae ea 23 bc
       -0.0014082656 -0.00029270918 -0.00080519076 -0.0100046825
0003d0 96 97 60 3a 66 21 01 3b 19 78 49 bb f0 42 95 bb
       0.000856751 0.0019703745 -0.003074175 -0.0045550987
0003e0 46 64 84 ba eb 94 34 b9 d0 fa 0f bb 96 17 d9 b9
       -0.0010100685 -0.00017221614 -0.0021969564 -0.00041407038
0003f0 15 5c a5 bb e0 34 ec 39 a1 f8 a3 bb 91 22 cd bb
       -0.0050463774 0.00045052823 -0.005004004 -0.006260224

fc2.0.parameter_0_1 f4 [32]
000000 e7 e7 a6 39 fd bf e8 b7 78 7e 9e 3c 88 11 da bd
       0.00031834768 -2.7745957e-05 0.019347414 -0.10647875
000010 fa 09 7c 3c 5f b2 a4 3d 75 78 cb bc 03 82 b5 b9
       0.015383238 0.08041834 -0.024837712 -0.00034619877
000020 7d 20 11 3e 26 f5 52 bd 5b 57 17 b0 51 45 66 3e
       0.1417255 -0.051503323 -5.505762e-10 0.2248738
000030 4c 16 18 a3 0e 60 0d 3e 90 87 15 3d ea ab 05 af
       -8.244658e-18 0.13806173 0.036506236 -1.2157356e-10
000040 38 63 4a 3e 49 e9 09 3e 10 42 56 3c d1 c9 58 32
       0.19764411 0.13467897 0.013077274 1.26187425e-08
000050 f3 14 8d 3e 28 e1 65 3e 9c 09 14 be 4c 07 a8 bc
       0.27555045 0.22449172 -0.1445679 -0.020511292
000060 d5 05 30 bc ac 3c 8d 3e fa 3b 05 3e 10 7d ba b0
       -0.010743578 0.2758535 0.1301116 -1.3568826e-09
000070 30 5b d3 3c b8 cf 19 be 54 e7 0a be cb 75 89 bc
       0.025800318 -0.15020645 -0.13564807 -0.0167798

loss_fn.weight f4 [2]
000000 ab aa 2a 3f 00 00 80 3f
       0.6666667 1.0

lstm._dense_layers_input.0.parameter_0_0 f4 [256, 32]
000000 70 c6 88 3b 15 ff d0 32 90 71 a1 3d 99 06 a0 3c
       0.004174046 2.4330385e-08 0.078829885 0.019534396
000010 bc 8a d8 ba a3 c6 0e 3d 51 37 cc 3c 83 33 a5 b6
       -0.0016520838 0.034857403 0.02492872 -4.92338e-06
000020 24 b5 9c bc e1 7e 30 3d 09 47 bb 17 a1 4f 93 bc
       -0.019129343 0.04308975 1.2102524e-24 -0.017982306
000030 9b 4d 3d a0 69 b4 ea bc bb af d6 3d 82 1a 70 2c
       -1.60346e-19 -0.02865048 0.10482737 3.4120766e-12
000040 b6 6e 3e bc 3b 7c 77 bc 42 ef c1 3d 12 c1 d7 b0
       -0.011623075 -0.015105302 0.09469463 -1.5698183e-09
000050 28 3d 10 3a d5 29 15 3b 9c 29 74 3c a7 f5 37 3c
       0.0005502277 0.002276053 0.014902499 0.011228002
000060 16 64 91 3b f4 23 77 3c d5 d3 de bc b8 2d c4 30
       0.00443698 0.0150842555 -0.027200619 1.4273871e-09
000070 e5 62 b9 3d 6a 11 16 bc b1 d5 f4 3c 92 fa 26 3d
       0.09052066 -0.009159425 0.029887052 0.040766306
000080 4c 4c b8 3c b8 32 eb 32 51 f8 86 bc 83 5f 16 3d
       0.022497319 2.7380665e-08 -0.016475828 0.03671218
000090 13 1c 84 3d 4b fb ca 3c bb 78 4f 3d cb c4 a2 b4
       0.06450667 0.024778029 0.050652247 -3.0318037e-07
0000a0 0f 81 c1 ba d1 b7 02 3d 33 9a 17 25 71 aa 92 3a
       -0.0014763194 0.031913582 1.3149407e-16 0.0011189712
0000b0 77 f1 8a 21 7c dc 51 bc d0 19 bb bc 39 1e 4a ac
       9.415159e-19 -0.012808915 -0.022839457 -2.8722703e-12
0000c0 7e 48 54 bd fd b6 44 bc 57 29 8e 3b 78 8f 3a 31
       -0.051826946 -0.012006518 0.004338424 2.7148115e-09
0000d0 01 34 46 3d bd f0 09 bd b6 68 65 bd 66 95 bf 3c
       0.04838944 -0.03367685 -0.056008063 0.023386668
0000e0 9a 13 c8 3c 7c 44 5c 3d b2 32 03 3e 60 ba 07 32
       0.02442341 0.05377625 0.12812307 7.900411e-09
0000f0 2a 1b 37 3b d4 43 21 3d a2 00 03 3d ee 61 30 3d
       0.0027939775 0.039371327 0.031983025 0.043062143
000100 61 93 90 3c f8 7f f7 b1 50 41 5e 3d e3 7a 4a 3d
       0.0176484 -7.2031945e-09 0.054261506 0.0494336
000110 54 af e6 3c 6a 7d 80 3c e5 09 81 bb 6a ff f0 b6
       0.028159775 0.015684802 -0.003937947 -7.1822915e-06
000120 1b 65 53 3d 41 9f 90 3d aa 7a 9b 17 15 be db 3d
       0.051610094 0.07061625 1.0047605e-24 0.10729615
000130 bf 28 7c a0 64 6a 71 3d 6b b2 73 3d e8 62 eb ac
       -2.1358712e-19 0.058939353 0.059496325 -6.6900825e-12
000140 ca 63 f3 3c 5c fc 3b 3d 5b ec 39 3d 32 7e a1 31
       0.02971067 0.045894966 0.04539142 4.7000634e-09
000150 94 e3 0c 3e 47 65 f2 3c d5 92 b8 3c 3c 2b 14 bb
       0.13758689 0.029589308 0.022530952 -0.0022608778
000160 a1 2a 9e 3c 8d d2 10 3e 2d e5 d3 3d 23 03 0f b1
       0.019307436 0.14142819 0.10346446 -2.0811022e-09
000170 68 1b 3d 3d 51 4c 5c 3d 04 28 87 3d 46 8c 20 3a
       0.046168715 0.05378372 0.06599429 0.0006124418
000180 07 27 2b 3d c7 df f1 31 b3 1a 28 3c b8 7e 42 3e
       0.041785266 7.0394637e-09 0.010260272 0.18993652
000190 9f 8b 74 3d 51 2a ff 3c f4 5d 58 bc 04 e9 bb b5
       0.059703466 0.031148108 -0.013205994 -1.4000402e-06
0001a0 0c 2d e3 3b 59 aa 12 3e f8 c0 c9 96 50 3b 4f bd
       0.0069328602 0.14322795 -3.2595082e-25 -0.050593674
0001b0 af 20 e5 21 3f 69 67 bd d0 f7 ac 3c fe a3 03 ac
       1.5526295e-18 -0.056496855 0.02111426 -1.8707254e-12
0001c0 b8 32 3d bd 51 3a 76 ba 84 f6 c6 3c 71 76 02 b2
       -0.046190947 -0.0009392845 0.02428747 -7.593926e-09
0001d0 cd d6 0f bd 4c ea 84 bd 85 b0 54 bc e5 c7 93 3b
       -0.03511696 -0.06490001 -0.012981539 0.0045099133
0001e0 f0 19 4f 3d 9f 3b 9e 3c dd bc e1 3d b6 69 34 b2
       0.050561845 0.019315539 0.11022351 -1.0501415e-08
0001f0 b3 8e 9a 3c 14 dc 42 3e 66 04 f3 3d 49 ac 9c 3c
       0.018866872 0.19029266 0.11866073 0.01912512
000200 47 2a 48 ba 59 c4 2e 2f 31 25 dd bb 4e ac 7d bb
       -0.00076356943 1.5894965e-10 -0.0067488183 -0.0038707438
000210 10 e1 1c b9 40 00 ad bb f0 bc 6a bb 8c 5b 44 35
       -0.00014961162 -0.005279571 -0.0035818182 7.314891e-07
000220 a3 54 1e ba 05 64 8b bb e2 73 2f 12 3c 0a e8 ba
       -0.00060398335 -0.0042538666 5.53631e-28 -0.0017703245
000230 8e e7 e1 1f 45 f1 91 ba 63 47 fc bb 6e 35 a7 2a
       9.567428e-20 -0.0011134526 -0.0076989396 2.9702234e-13
000240 90 f1 17 ba f3 77 2a ba 60 f1 e4 bb 62 72 01 ad
       -0.00057961885 -0.0006502859 -0.006986782 -7.358199e-12
000250 25 f2 3a bb 7f a3 0e ba 7a 84 95 bb da e0 28 bb
       -0.0028525677 -0.0005441233 -0.0045629116 -0.0025768788
000260 f4 32 2b ba 09 1e 33 bb 76 30 b7 ba 7d 66 de ae
       -0.0006530725 -0.0027331135 -0.0013976234 -1.0113597e-10
000270 fb 3b ed bb 4d c4 f3 ba 94 9b 7b bb e9 9a fd b9
       -0.0072398162 -0.0018597931 -0.0038392292 -0.00048371337
000280 e8 78 48 3c ae c6 86 b2 c5 c9 8e 3d 20 c7 e9 3b
       0.012235858 -1.5690002e-08 0.06972078 0.0071343333
000290 28 b1 bc 3b 26 d8 0a 3d 42 26 cb 3c c5 0d 70 b7
       0.0057584234 0.03389754 0.024798516 -1.4308321e-05
0002a0 fd 49 19 bc e7 ff 04 3d 81 f7 c0 15 ed 71 67 bc
       -0.009356019 0.03247061 7.7938675e-26 -0.014126283
0002b0 5c 57 06 20 e5 91 95 bc 7b 1d b7 3d 27 39 92 2c
       1.1379146e-19 -0.018258044 0.0894117 4.1559148e-12
0002c0 25 7f 2d bc 31 91 44 bc c0 2b b6 3d 93 6c c9 ae
       -0.010589396 -0.011997507 0.088950634 -9.1597084e-11
0002d0 2b 5a ef 3b 0b a1 4f 3c 4b 6e 24 3c 84 06 58 3c
       0.00730445 0.012672673 0.0100360615 0.013185147
0002e0 63 7b c5 3a 8b c7 8c 3c ed 41 ba ba 08 ea af 30
       0.0015066679 0.017184993 -0.0014210321 1.2799442e-09
0002f0 ba 27 b6 3d 59 05 d7 bb e9 6b 0c 3c b4 95 de 3c
       0.08894296 -0.006561917 0.00857065 0.027170993
000300 4b 62 92 bb fc 93 1c af ce 40 9b bc f3 e8 49 bc
       -0.004467284 -1.4240692e-10 -0.0189518 -0.012323606
000310 a8 26 c5 bb b7 44 9e bc 4f c7 43 bc a4 62 a6 b4
       -0.006016571 -0.019319875 -0.011949374 -3.099168e-07
000320 1b b9 d5 ba cd 62 5c bc e7 11 ef 91 38 6c da bb
       -0.0016305776 -0.01345129 -3.7718584e-28 -0.0066657327
000330 ea 34 19 9e fe 35 7c bb 85 ff 8c bc 82 d5 c1 a9
       -8.110695e-21 -0.003848433 -0.017211685 -8.6079595e-14
000340 9e 43 0a bb c7 41 88 ba 51 d6 99 bc 4a ee e5 2c
       -0.0021097432 -0.001039558 -0.018778952 6.535027e-12
000350 59 59 12 bc 9c 63 44 bb bc 9a 84 bc 94 6e 18 bc
       -0.008932435 -0.0029966598 -0.016187064 -0.009303708
000360 c2 b2 89 bb 1f cf 31 bc 3b 7c 88 bb 6b 17 b5 ac
       -0.004202218 -0.010852604 -0.0041652 -5.1469293e-12
000370 06 d3 ad bc 88 3d 3a bc 80 ef 1b bc 45 12 a4 bb
       -0.021218788 -0.011367209 -0.0095175505 -0.0050070607
000380 8c 8a 23 3c 58 32 83 b2 b3 38 42 3d b8 81 88 3c
       0.009981763 -1.52733e-08 0.047417354 0.016663417
000390 a4 08 37 3a db dc 9f 3c 76 76 9b 3c f0 32 de 35
       0.00069821835 0.019514492 0.018977385 1.6555114e-06
0003a0 0f f2 08 3c 24 83 4a 3d 2c 15 60 97 91 43 19 3c
       0.0083584925 0.04944147 -7.2405026e-25 0.009354488
0003b0 97 f7 17 a1 41 c0 8f 3b 27 f8 89 3d 52 5a 9c ab
       -5.148847e-19 0.004386932 0.067367844 -1.1109536e-12
0003c0 af 51 f9 3b 2a a2 38 3c 62 7e 74 3d 6d d2 da 2f
       0.0076086144 0.011269132 0.05969084 3.9803486e-10
0003d0 9f 86 d2 3c e3 09 18 3c 5b 11 97 3c 21 49 68 3c
       0.025698958 0.009279701 0.018440893 0.014177592
0003e0 62 3e ef 3b 1b 77 0e 3d 82 d0 72 3c 38 4c a6 2f
       0.007301138 0.034781557 0.01482022 3.024938e-10
0003f0 b6 db 72 3d 03 bd f3 3b 67 d0 06 3d 5f 67 f3 3c
       0.059291564 0.0074383034 0.03291359 0.029712377

lstm._dense_layers_input.0.parameter_0_1 f4 [256]
000000 cf d4 da 3b 6e 5a ae 3a 13 da 1b 3c d0 a1 eb 3a
       0.006678201 0.0013302097 0.009512442 0.0017977301
000010 1a 64 d4 b9 05 fe 0f 3c 9e 46 15 b8 f0 e5 fa 3b
       -0.00040510372 0.00878859 -3.5590136e-05 0.007656805
000020 aa a0 6d ba ed a2 5d 3a ad 38 18 3b 29 a8 96 3b
       -0.00090647733 0.0008454759 0.002322714 0.004597683
000030 75 92 24 3c 87 41 f1 3b 46 fb 0e ba 2a df b7 3b
       0.010044684 0.007362548 -0.0005454313 0.00561132
000040 31 e1 be ba 09 f2 9d 3b 1e 2f e0 36 ec 53 0c 3c
       -0.0014562962 0.0048201126 6.6812054e-06 0.00856493
000050 f0 ae 30 ba 03 6c 43 3c 31 f5 18 3c a5 1d 09 3c
       -0.0006739935 0.0119276075 0.009335802 0.008368884
000060 a8 b7 3b 3c 5a 68 d4 3b 67 53 a8 b8 6e 41 a8 3a
       0.011457361 0.0064821662 -8.026399e-05 0.0012836882
000070 fd 6f 96 3c 9c ac 64 3b b1 10 8b 3b 48 9c bb 39
       0.018363947 0.0034892922 0.004243933 0.00035783858
000080 a7 67 7e 3b 37 43 d5 3b ef 93 80 b9 02 11 46 ba
       0.0038819106 0.006508257 -0.00024524282 -0.0007555635
000090 bf fa 18 3c 35 f0 e9 3b c4 a1 60 3b f7 9e 93 3b
       0.009337126 0.0071392306 0.0034276107 0.004505034
0000a0 ea 4a 93 b8 cb 0b 21 b9 da 08 cc 3b e4 7a 97 b9
       -7.02346e-05 -0.0001535855 0.006226641 -0.00028892525
0000b0 97 79 83 b9 f2 5c 9c 3b 2d 0e 0a b8 d5 64 5a 3b
       -0.0002507686 0.004771822 -3.2914966e-05 0.003332426
0000c0 37 7c 50 3c f0 30 21 3c 12 2f 07 3c 0a 3e 44 3c
       0.012724928 0.009838328 0.0082509685 0.011977682
0000d0 d5 8d 00 3b b7 a9 6d 3b 83 28 74 b8 6d 72 6f 3c
       0.0019615788 0.0036264488 -5.8211863e-05 0.014614684
0000e0 c7 25 37 3a b5 56 9f b8 1e 0a 5a 3c 9a 51 44 b9
       0.0006986525 -7.597861e-05 0.013308076 -0.00018722416
0000f0 0b cb 72 3b 67 39 21 3a 82 81 60 3b 8b 9c ff 39
       0.0037047293 0.0006150216 0.003425688 0.00048754024
000100 13 bc 86 ba ae f4 cd 3c a2 37 76 3c 9f 8f 88 3c
       -0.0010279439 0.025141086 0.015027912 0.016670046
000110 9f f7 ca b9 cd 67 42 3b 87 6f e0 39 dc 61 98 3b
       -0.00038712934 0.002966392 0.00042807704 0.0046503376
000120 ae bd 83 ba 1f 2b 81 3b 10 02 b6 3b d8 92 2b 3c
       -0.0010051036 0.003941908 0.005554445 0.010472022
000130 02 aa ac 3c 99 49 91 3c 94 cf e2 b9 fa 83 04 3b
       0.02107716 0.01773529 -0.00043260737 0.0020220266
000140 a5 d8 97 ba 53 cd 16 38 e9 2a 98 39 a8 e8 1f 3b
       -0.0011584951 3.595401e-05 0.0002902367 0.0024400149
000150 19 12 20 ba 9b 7c 84 3c 87 22 f1 3a 27 8f bd 3b
       -0.00061062124 0.016172698 0.0018397131 0.0057848874
000160 8a 67 6c 3c 2e d2 aa 3a 0b f5 0e b9 82 05 3b 3c
       0.0144289825 0.0013032609 -0.00013633461 0.011414887
000170 de db 2b 3c 43 e3 a9 3b 32 38 d0 3b 9d 0c 01 3a
       0.010489432 0.0051845624 0.0063543553 0.0004922839
000180 2d 33 cf 3c 44 7a cc 3a f2 f7 81 b9 1e 7c 19 ba
       0.025292957 0.0015600403 -0.0002478953 -0.0005854982
000190 07 d1 4e 3b 97 33 bd 3b 94 70 f3 3b 92 be 8e 3b
       0.0031557695 0.0057739723 0.007429192 0.004356214
0001a0 40 5a ad b8 cd 82 d8 b8 32 1c 97 3b fa cc 26 b9
       -8.266093e-05 -0.00010324046 0.0046115154 -0.00015907353
0001b0 1a 7c 46 b9 67 00 92 3c 17 d3 57 39 2b b6 b6 3a
       -0.00018928983 0.017822457 0.00020582635 0.0013939788
0001c0 2b ec 54 3c 85 96 34 3c dd 2c eb 3a 28 d9 62 3c
       0.01299576 0.011022215 0.0017942447 0.013845719
0001d0 28 14 5c 3a 80 02 15 3c 71 01 e4 b8 fa 73 4a 3c
       0.00083953375 0.009094834 -0.00010872156 0.0123567525
0001e0 84 21 62 3c e1 ca bc 37 3f 50 55 3c 24 28 80 b9
       0.013801936 2.250582e-05 0.01301962 -0.0002444397
0001f0 48 8b ec 3c 71 a1 8c 3a 7e d7 ce 3a 4c 88 4d 3a
       0.028875008 0.0010729266 0.0015780774 0.0007840439
000200 55 59 c2 3b 4c 0c a0 3c 4d e4 cb 3b ad 77 de 3b
       0.0059310594 0.019537114 0.006222284 0.006789169
000210 20 12 b9 b9 25 ca 05 3c 92 77 b5 35 00 c2 1b 3c
       -0.00035299454 0.008165871 1.352035e-06 0.009506702
000220 4d b1 80 ba ca cd 21 3b 21 22 5f 3b 45 02 2c bc
       -0.0009818465 0.002468931 0.0034047442 -0.010498588
000230 9a 88 7b 3b ee 53 3f 3c 37 d6 e0 b9 6e 1f 9e 3b
       0.0038380981 0.011677725 -0.00042884212 0.004825524
000240 91 9c cb ba 1d 20 28 3b 4c d0 9b b7 52 66 b1 3b
       -0.0015534331 0.0025653907 -1.8574436e-05 0.005413809
000250 bf c2 1f ba 0b 71 dd 3b 7d 50 7c 3b b5 98 b9 3b
       -0.0006094388 0.0067578605 0.0038500123 0.005663956
000260 19 d0 52 bc f1 7d 37 3b a3 fd bc b8 95 ad 03 3c
       -0.012866997 0.002799865 -9.011782e-05 0.008036991
000270 c5 07 9b 3c 3d 90 7f 3b a8 26 e8 b9 f0 0f b5 39
       0.018924603 0.0038995885 -0.0004427929 0.00034534885
000280 d4 b2 0c 3c 62 0e 3e 3b cd fe 8f b9 e0 f2 2a ba
       0.008587558 0.0029000272 -0.00027464927 -0.00065211765
000290 06 71 36 3c 14 8d 1b 3c d5 97 2b 3a b9 2a c8 3b
       0.011135345 0.009494085 0.0006545757 0.0061086086
0002a0 36 cd 51 b8 5b a0 a3 b9 23 33 00 3c e4 dd 0b b9
       -5.00206e-05 -0.00031209257 0.007824692 -0.00013338734
0002b0 14 d7 a6 b9 04 6f 1e 3c 58 16 11 b9 72 38 e6 3a
       -0.00031822233 0.009670023 -0.00013836601 0.001756443
0002c0 f1 f2 a7 3c 93 b3 25 3c 6a 07 f0 3b d9 dd 72 3c
       0.020501586 0.010113615 0.0073251026 0.0148234
0002d0 c6 ac 89 3b 7d 79 92 bb 31 85 83 b7 80 c0 71 bb
       0.0042015044 -0.004470049 -1.5678439e-05 -0.003688842
0002e0 ea b0 21 3b ac 52 95 b8 56 26 bd 3c 24 b5 7a b9
       0.00246721 -7.1202725e-05 0.023089569 -0.00023909338
0002f0 14 80 ca 3b 68 ec 47 3a ee 94 23 3b b7 8d 0d 3a
       0.006179819 0.0007626475 0.0024960595 0.00053998403
000300 d3 8d d6 bc ca d2 b8 bc 10 95 d0 3c 19 da 52 3c
       -0.026190674 -0.02256145 0.025461704 0.012869381
000310 99 12 93 3a 8c 6a 9a bc c4 03 b5 ba 19 30 d3 bc
       0.0011220752 -0.018849634 -0.0013810326 -0.02577977
000320 57 01 50 ba 0d f5 04 bd 11 97 b6 bc 39 a1 fc bb
       -0.000793477 -0.03246026 -0.022288831 -0.007709649
000330 84 2f c0 bc 18 95 5e 3a 6a 55 52 3b e1 3d f3 bb
       -0.023460157 0.00084908446 0.0032094368 -0.007423148
000340 65 e4 ab 3a ab 05 fb 3c 92 2b b9 ba fd 18 dd 3c
       0.0013114332 0.030642351 -0.0014127365 0.026989454
000350 e5 6d 8b 3b 8e 08 96 bc 22 24 0a 3d f1 6d fd 3c
       0.004255044 -0.018314626 0.033725865 0.030936213
000360 31 39 06 3c f9 42 bc bc b8 b0 10 ba df 3e 09 bd
       0.008192346 -0.022981154 -0.0005519497 -0.033507224
000370 e1 f8 2d bd e8 a9 76 3c c9 16 7e 3c 2f 7e c7 ba
       -0.042473678 0.015055157 0.015508362 -0.0015220101
000380 3f 53 1a bd 5e 44 a1 bc 05 c1 05 ba eb 91 fd ba
       -0.037677046 -0.01968592 -0.00051023095 -0.0019345855
000390 60 f7 05 3d 84 04 e2 3c 70 e3 86 ba d0 46 86 bc
       0.03270662 0.027590044 -0.001029117 -0.016391188
0003a0 24 38 8a ba d3 38 91 ba a5 b2 ee bc 65 a0 c1 ba
       -0.0010545296 -0.0011079557 -0.029137919 -0.0014772533
0003b0 ac e7 c9 3a 58 9b 6c 3c b4 11 07 bb f1 e8 61 bc
       0.0015404127 0.014441334 -0.0020609917 -0.013788448
0003c0 6a 0d 02 bd 01 80 01 bb 9f 6a f2 3c 9b 8a ec bc
       -0.031751074 -0.0019760134 0.029591857 -0.028874686
0003d0 76 d5 0a 3d 1d 99 a5 bc e1 38 b1 b9 d1 42 b9 3b
       0.03389498 -0.020214612 -0.0003380245 0.005653717
0003e0 d5 2a a5 bc 3b b1 e7 3a a9 f3 d1 bc 08 a4 4e 3a
       -0.020162025 0.001767672 -0.025628882 0.0007882719
0003f0 50 92 51 bc 21 73 1a bb d8 8a 88 bb 6e 29 f9 3a
       -0.012791231 -0.0023567157 -0.004166942 0.0019009539
